models/model.onnx (onnx, 777952 bytes, 60 tensors)

dec.conv_pre.bias f4 [32]
000000 93 f5 47 be 29 a8 8c 3e 86 7e 1b 3e 7e c3 a5 3e
       -0.19527273 0.27472046 0.15184984 0.3237571
000010 51 87 65 be 4e 00 a1 be a7 e3 8e 3d c3 b5 9e be
       -0.224149 -0.31445545 0.06977015 -0.30998048
000020 17 04 81 be 20 57 18 3e da cc fb 3d 84 b9 9a be
       -0.25198433 0.14876986 0.12294932 -0.30219662
000030 4b eb 45 3e 1a d0 74 bd 39 0b 76 3e ab 1d 41 be
       0.19328038 -0.059768774 0.24027719 -0.18858974
000040 08 3e a2 be a5 be 1f be 4a ce 4d 3d 6f bf aa be
       -0.3168795 -0.15600069 0.05024556 -0.33349177
000050 2b e7 a0 bb 08 92 25 be a7 ee 8a bd 57 dc 6b 3b
       -0.00491037 -0.16168988 -0.067838006 0.0035989487
000060 0c 20 0e 3d a0 7d 85 be 48 ca 0f 3e f7 95 2e be
       0.03469853 -0.26072407 0.14042008 -0.17049395
000070 91 68 45 3e c8 2f 9a 3e 35 58 a5 bd 21 b6 09 3d
       0.1927817 0.3011458 -0.08073465 0.033620957

dec.resblocks.2.convs1.0.weight_g f4 [32, 1, 1]
000000 95 f5 1d 3f 4c cb 0e 3f 54 1f 53 3f 01 50 1d 3f
       0.61702853 0.55778956 0.8246968 0.614502
000010 18 14 0a 3f f1 e7 09 3f 7f c7 23 3f d6 6d 1b 3f
       0.5393691 0.5386954 0.6397628 0.6071447
000020 bd 6e fd 3e 6e cc 02 3f 69 0e 1b 3f 56 bc 25 3f
       0.4949855 0.51093185 0.60568863 0.647405
000030 ab 58 41 3f 2e d7 1f 3f d2 86 39 3f 40 e9 5f 3f
       0.7552592 0.62437713 0.72471344 0.87465286
000040 cb 49 41 3f 50 cd 25 3f 27 36 10 3f 8d a5 08 3f
       0.75503224 0.64766407 0.5633263 0.5337761
000050 5f 49 34 3f ad 96 00 3f e2 88 26 3f 2c 70 30 3f
       0.70424455 0.50229913 0.65052617 0.6892116
000060 f4 67 43 3f 13 1d 18 3f 78 bc 3a 3f 42 84 16 3f
       0.76330495 0.59419364 0.7294383 0.5879556
000070 8a 81 2e 3f 14 0f 2a 3f 4a f6 0d 3f 16 82 20 3f
       0.6816641 0.6642926 0.5545393 0.62698495

dec.resblocks.2.convs1.0.weight_v f4 [32, 32, 11]
000000 5b a5 0f bd 72 8b c7 bc dc ce 47 bc cd e4 a7 ba
       -0.035069805 -0.024358485 -0.012195315 -0.0012809277
000010 9a 1a 70 bc 64 1c b4 3c b3 22 9d 3b cc 6e 69 3c
       -0.01465478 0.021986194 0.0047953962 0.014247607
000020 ea 4e c6 bc fa 77 17 3d 5a cd 0a bb 50 29 46 3c
       -0.024207551 0.036979653 -0.0021179528 0.012094811
000030 5e c7 3d bd 11 da 90 3c b6 62 be 3c 5c 8c 86 bc
       -0.04633271 0.017682107 0.023240428 -0.01642435
000040 80 87 3a bd ce 77 09 bd 2a c5 e5 b9 fa 39 ff bb
       -0.04553938 -0.03356152 -0.00043825182 -0.0077888938
000050 53 4c b9 3c fe 84 d4 3a 25 99 99 bd c4 8d c7 bc
       0.022619402 0.0016213951 -0.07499913 -0.024359591
000060 7e 03 71 3c 92 4a b4 3c 99 76 ec 3c 9a 35 bc bc
       0.014710305 0.022008214 0.028865146 -0.022974778
000070 10 aa f3 bc 38 51 e1 bb 07 38 50 3d fe 75 4e 3d
       -0.029744178 -0.006876137 0.05083468 0.050405495
000080 75 2c 45 3d 9c a7 19 bd 65 04 36 bd 64 ea 0a bd
       0.0481381 -0.03751336 -0.044437785 -0.03391494
000090 ed bd 21 bb 2a 8f 62 bd 9e 36 7d bd c7 f2 6c bd
       -0.0024679855 -0.055312313 -0.061819665 -0.057848718
0000a0 cf fa 3c 3c bb a4 1f bd 60 36 e7 3b da ca b7 bc
       0.011534407 -0.03897546 0.0070560426 -0.022435594
0000b0 0e 6f 15 bc 0f 3b ce 3c af 6c 31 bc 59 c4 4c 3c
       -0.009120716 0.025174646 -0.010829135 0.012497985
0000c0 6f 43 c5 ba f7 41 12 bd 94 38 a6 3c 43 a9 99 bb
       -0.0015050004 -0.03570744 0.02029065 -0.004689367
0000d0 7e 87 de 3c d8 10 2b bc e6 e9 04 3d 17 77 04 3d
       0.027164217 -0.010441028 0.032449625 0.032340135
0000e0 91 7d 72 bc ae 49 d3 3c 19 bb 00 3d 1f 3b 91 bc
       -0.014800445 0.02579197 0.03142843 -0.017728386
0000f0 b5 23 b7 bb 48 54 93 ba 28 d8 27 bd d7 91 92 3c
       -0.0055889734 -0.0011240328 -0.040977627 0.017891807
000100 ed c2 2a bd 8b 6d 88 bc a8 bd 39 3d d2 35 50 3d
       -0.041689802 -0.016653797 0.045346886 0.050832577
000110 1e f6 8e 3d 07 7c 94 3d c8 ab 46 3d 5d 91 94 bc
       0.06980537 0.07250219 0.048503667 -0.01813572
000120 c2 2d a2 bc 27 19 a0 3c ef d5 2d 3d 97 92 de 3c
       -0.01979721 0.019543244 0.04244035 0.027169509
000130 9c 3c df bc 32 96 5a 3d ed 7f 05 3b 59 ce ff ba
       -0.02725058 0.053365894 0.002037044 -0.0019516452
000140 28 26 aa bc 32 65 da bb 4f 34 80 bd d0 97 de bb
       -0.020770147 -0.0066648955 -0.06259977 -0.006793
000150 e2 83 5a bd 0e b5 4d bd ea 4b 1e 3c c3 da 3c 3c
       -0.05334843 -0.050221495 0.009661654 0.011526766
000160 97 16 a6 3c 3c 9f b0 bc 00 46 99 3b 72 46 24 bd
       0.020274444 -0.021560304 0.004677534 -0.040106244
000170 59 9b 1b bd 7b d6 e3 3b 88 97 02 bd a3 13 81 3a
       -0.037989948 0.0069530583 -0.031882793 0.0009847771
000180 63 5e a9 3c 9f e8 ac 3c 51 0d 8b bc fb 14 14 bd
       0.02067489 0.021107016 -0.016974123 -0.03615282
000190 44 57 81 bd 2d 00 1a bd be 62 29 3c 05 bc ec bc
       -0.06315473 -0.037597824 0.010338483 -0.028898248
0001a0 2d 22 3f bd 2f 6a dc bc de 3e 1c 3c b5 3e 7e 3c
       -0.046663452 -0.026906101 0.009536473 0.01551788
0001b0 f1 78 5c bc 8b 71 06 3c 4a ef 7f bd 1f a5 06 bd
       -0.013456569 0.008205782 -0.062484063 -0.032872315
0001c0 13 69 11 bd d3 56 a9 bd cf 3c 86 bd 3b 00 dc bd
       -0.035500597 -0.082685135 -0.06554567 -0.107422315
0001d0 77 eb b1 bd b9 aa 81 bd a0 b8 4e bd 0b db dc 3c
       -0.086874895 -0.06331391 -0.05046904 0.026959917
0001e0 b0 90 a3 bc 56 56 d8 3c 3c 64 15 3d 66 19 9e bc
       -0.019966453 0.026408356 0.036472544 -0.01929922
0001f0 80 62 15 bc 92 c5 7f 3c 17 ba 4f bd 96 8d a5 bc
       -0.0091177225 0.015611069 -0.05071458 -0.020209115
000200 d3 59 c8 bb 36 7c 4b 3b 19 29 c9 bb 1e 2f e2 bc
       -0.0061142235 0.0031049377 -0.0061389324 -0.027610358
000210 15 06 8f 3b f2 51 06 3d 49 7d 14 3d 17 98 09 3b
       0.0043647387 0.032792993 0.036252294 0.0020995194
000220 a4 af e4 3c b7 17 c8 3c f5 c8 8e 3d ea c4 0b 3d
       0.027915783 0.02442537 0.06971923 0.03412334
000230 70 74 b6 bc f7 df c5 3c d0 87 85 bc 12 f3 f5 bc
       -0.022272319 0.024154646 -0.016300112 -0.030023132
000240 32 63 93 bb 6a e8 a7 3c e5 f8 86 bc ce 8f 69 bb
       -0.004497909 0.020496566 -0.016476104 -0.0035638693
000250 2a f3 51 bc 27 7c 6f 3b 04 0e f6 3c 15 01 9a 3c
       -0.0128143225 0.0036542506 0.03003598 0.018799344
000260 ee 69 53 3c fe 5d 8a 3d eb 6b 1d bc b0 61 01 3d
       0.012903674 0.06756209 -0.009608249 0.031587303
000270 74 31 21 3d fc 86 0d 3d 32 a8 03 3d 4a 57 f5 bc
       0.039353803 0.03455256 0.032142825 -0.02994885
000280 b2 55 8a 3c 00 51 69 bc 63 41 0f bc 06 83 c5 bc
       0.016886566 -0.014240503 -0.008743617 -0.024110328
000290 1a 3a d4 3a 3b 81 4f 3d 49 41 38 3d 96 3b e9 3b
       0.0016191632 0.050660353 0.044984136 0.007117699
0002a0 87 44 41 3d 28 d1 94 3c 2b 72 67 3d c7 4f e4 3c
       0.047184493 0.01816614 0.056505363 0.027870072
0002b0 16 96 af 3c 3c d4 9d 3b aa 96 87 bc 33 4b e4 bc
       0.021433871 0.00481656 -0.016551334 -0.027867889
0002c0 a5 6d 00 3d 3e dd 21 3d a6 30 c7 bc 31 4b b4 bc
       0.031354565 0.039517634 -0.02431519 -0.02200851
0002d0 36 00 68 bc 1a b5 aa bb 9f 13 2a 3b 8d 21 11 bd
       -0.014160207 -0.0052095773 0.0025951636 -0.035432387
0002e0 3a f3 97 3b 03 3e 71 3b 64 ce 18 3b 7f 0f 70 3c
       0.004637149 0.0036810644 0.0023316378 0.014652132
0002f0 46 58 e3 bb d9 57 41 bc 4b 5d d6 bc 6c 08 64 bd
       -0.0069380132 -0.01180073 -0.026167532 -0.055672094
000300 a4 31 16 bd fa fa c7 bb ef 93 be bb 8a 06 e7 bc
       -0.036668435 -0.006102917 -0.005815975 -0.02820136
000310 a3 4a 0a bd 0a f1 23 bc 18 b7 7b bc 3c a9 64 bd
       -0.033762585 -0.010006199 -0.015363477 -0.055825457
000320 48 cb 90 bd fb 6e fb bd d4 3d dc bd 43 ca 44 bd
       -0.07070023 -0.12277027 -0.1075398 -0.048044454
000330 ea 2f 61 bc 2d 4c 06 bd ff 7d a8 bc 43 de c9 3c
       -0.013744334 -0.03278749 -0.020567892 0.024642115
000340 78 ef 54 3d 39 21 9c 3c 80 5b 59 3c c6 b7 b0 3c
       0.051986188 0.01905881 0.013266444 0.021572005
000350 e1 9f 63 bc f7 a5 b7 bc a9 fc 35 bd f8 55 28 bd
       -0.013893099 -0.022418005 -0.04443041 -0.04109761
000360 40 af 3b bd 59 97 00 3c 31 28 72 bc 52 49 f5 bc
       -0.04582143 0.007848584 -0.01478009 -0.029942188
000370 3d 6f 92 bb 54 ae b4 bc aa 7d 96 bd cf c2 65 bd
       -0.004468827 -0.022055782 -0.07348187 -0.056093987
000380 82 6e 9c bd 62 07 a8 bd 93 cd 9e bd 02 4c 8e bd
       -0.07638265 -0.08204533 -0.07754054 -0.06948091
000390 eb 09 10 bd 0d 9d 2e bd 11 fe a7 bd 57 c1 13 3d
       -0.03516571 -0.042630244 -0.08202756 0.036073055
0003a0 90 2c 0d bb fd d6 a2 3c c4 fc 44 bc 5e 6f 1a bc
       -0.0021541454 0.019877905 -0.012023155 -0.009425966
0003b0 5b a5 a4 bb 31 0d cc 3c c3 fc 07 3c 2d 9f 17 3d
       -0.0050245947 0.024908634 0.008300009 0.037017036
0003c0 e7 9b 13 3d b4 19 58 3c 10 b4 3f bc 7a ff e3 ba
       0.036037352 0.013189722 -0.011700645 -0.0017394864
0003d0 0f 7d 00 bd f0 d3 79 bd bc 93 77 bd d2 b8 52 bd
       -0.031369265 -0.060993135 -0.060443625 -0.05144579
0003e0 cf 08 29 bd 56 a2 0f bd 29 69 5e bc 40 8c bb 3c
       -0.041268166 -0.035066925 -0.013574877 0.022894025
0003f0 f1 67 7d bc 9e 8d c0 bb c0 fa 56 3d 19 a5 c2 bb
       -0.015466676 -0.005876257 0.052485228 -0.0059400913

dec.resblocks.2.convs1.0.bias f4 [32]
000000 df 83 84 3d 1d 1f 0b 3d d5 c9 1e 3d 24 e8 f2 3c
       0.06470465 0.03396522 0.0387667 0.029651709
000010 03 4e 31 3d e8 d3 b1 bc 28 70 54 3d 2c fa 94 bc
       0.04328729 -0.02170749 0.051864773 -0.018185697
000020 9b 64 48 3c ed 7c 0b 3d 08 00 6f 3d 8b e1 dd 3b
       0.012231017 0.034054685 0.05834964 0.0067712716
000030 cc 19 b7 bc 9b e8 4f 3c df 16 53 bc 89 28 e4 bb
       -0.022351168 0.012689735 -0.012883871 -0.00696284
000040 56 d9 c5 bc 49 93 ad bc d7 6b 5b bc af f0 4a 3d
       -0.024151485 -0.021188395 -0.01339241 0.04954594
000050 f2 63 85 3b db 10 2a bd 67 3b 18 bd ec 9d 75 3d
       0.0040707523 -0.04151998 -0.037166025 0.05996506
000060 62 60 69 3d 64 b1 18 3d b2 12 af bc 9e 0a 6f 3d
       0.056976683 0.037278548 -0.02137122 0.058359735
000070 75 ee 49 3d 98 93 6f 3d 29 27 49 3b 6b d5 06 bc
       0.049299676 0.058490366 0.0030693507 -0.008229594

dec.resblocks.2.convs1.1.weight_g f4 [32, 1, 1]
000000 af 73 ef 3e 2c c9 03 3f 16 66 0f 3f ae 33 3b 3f
       0.46767947 0.5147884 0.56015146 0.7312573
000010 53 54 2c 3f 14 5d 49 3f ce 43 44 3f 80 d7 57 3f
       0.6731617 0.7865765 0.7666596 0.843132
000020 74 33 13 3f 16 5c fa 3e 5b a7 46 3f a8 bb 22 3f
       0.57500386 0.4889838 0.77599114 0.6356759
000030 7e 54 1f 3f e4 b9 39 3f bd dd 1d 3f d8 ae 24 3f
       0.622383 0.7254927 0.6166647 0.6432929
000040 2c e0 32 3f 95 84 14 3f 34 09 38 3f 3a f6 85 3f
       0.6987331 0.58014804 0.7188904 1.0465767
000050 52 5c 0a 3f 30 d3 4f 3f 2b 94 3a 3f e8 b4 38 3f
       0.5404712 0.8118162 0.72882336 0.7215104
000060 a2 12 23 3f a3 73 0e 3f c3 e1 ef 3e cc b5 41 3f
       0.63700306 0.556452 0.4685193 0.75668025
000070 4d f3 ef 3e 5e 36 12 3f 9f cf 10 3f 18 0a 2d 3f
       0.4686531 0.5711421 0.56566805 0.67593527

dec.resblocks.2.convs1.1.weight_v f4 [32, 32, 11]
000000 53 7e 90 bd 34 d1 02 3c 45 f7 de 3b 1f 39 a4 bc
       -0.070553444 0.007984448 0.006804379 -0.020046769
000010 4d 5c 5d bc 33 5b 01 bd 81 29 f2 bb 6b 21 fb 3c
       -0.013510776 -0.031581115 -0.0073902016 0.030655583
000020 44 a3 76 bc 7a 28 d9 3b 66 a0 45 bd 63 de 61 bd
       -0.015053574 0.0066271396 -0.04824867 -0.055143725
000030 11 38 fe bc b5 4c 1e bb 4e 24 03 3d 9c a7 99 bc
       -0.031032594 -0.0024154608 0.032017045 -0.01875668
000040 ba 76 b9 bd b6 ec 73 bd 3e f3 55 bd bd 8b 94 3b
       -0.090558484 -0.059551917 -0.052233927 0.0045332597
000050 fe 37 13 3c 64 92 b1 3d 7b 25 0e 3c 7d 5f 1b bc
       0.008985518 0.086705 0.008675928 -0.009483215
000060 d4 02 30 3c 7a a6 20 bd 2b 11 1b bc 47 97 52 3a
       0.010742862 -0.039221264 -0.009464542 0.00080334063
000070 6f fb ad 3d 12 16 89 38 64 c8 e1 bb 59 33 c6 3d
       0.08495223 6.53678e-05 -0.0068903435 0.096777625
000080 b5 99 30 bd 37 be 87 bc e2 c1 57 bd 5c af b7 bd
       -0.043115336 -0.016570194 -0.052675135 -0.08968994
000090 b1 6c 8d bc d4 90 6e bc 01 67 e9 ba 66 63 29 bc
       -0.017263742 -0.014560897 -0.0017807187 -0.01033864
0000a0 80 ef 9f 3c 2f f9 77 3d 4a 82 9d 3c 36 90 11 bd
       0.019523382 0.060540374 0.019227166 -0.03553792
0000b0 3d 72 6a bd 74 77 f4 bb cc a0 ed bd dc 21 bf bd
       -0.057237852 -0.007460529 -0.11602935 -0.0933263
0000c0 cd 14 ec bc 75 ef 7e bd 63 3d 8c bd 52 d1 05 bd
       -0.028818512 -0.062240083 -0.06847646 -0.032670327
0000d0 15 82 36 bd 9d 5b 37 3c 88 38 ba 3c 20 fd 59 bd
       -0.04455765 0.011191276 0.022732034 -0.053219914
0000e0 28 50 8a bd 08 79 b2 bd fe 02 51 bd 55 03 59 bd
       -0.0675357 -0.08714491 -0.051028244 -0.052981693
0000f0 73 ab 8a bd 23 44 31 bc c1 3b fa 3d 9d 04 ac bc
       -0.067709826 -0.010819468 0.122184284 -0.020998294
000100 23 7b be 3d 57 cc 9e 3d 33 23 3b bd 1b 85 5d bd
       0.0930083 0.077538185 -0.045687865 -0.054082017
000110 30 03 96 bc c8 10 e4 bc 3a 2a aa 3d 89 90 95 3d
       -0.018312067 -0.027840033 0.08308835 0.073029585
000120 2b cd 33 3d 67 52 89 3d 0a 22 5b 3c b5 bc 74 bb
       0.043896835 0.0670517 0.013374815 -0.0037343923
000130 e5 66 8f 3d fe c7 2f 3d 01 66 cb 3b 0a a4 5f bd
       0.070020474 0.042915337 0.006207228 -0.0545998
000140 9f b8 a9 bb 41 dd e7 bc 3f 3d bc bd 60 66 f4 3c
       -0.0051794793 -0.028303744 -0.09191369 0.029833972
000150 be 82 50 3c 24 d4 1e bd 78 4c 1a 3d e8 4f 93 bd
       0.012726484 -0.03877653 0.037670583 -0.07192975
000160 8a 31 2b 3d 97 15 82 3d 81 1b 22 3d 95 09 3a 3d
       0.04179529 0.06351774 0.03957701 0.045419294
000170 1d 96 db 3c ca 86 89 3c c8 ff 51 3d ee a1 9b 3d
       0.026804978 0.016787905 0.051269323 0.07599245
000180 d6 c7 32 3d 67 bd 5f 3d 89 6b 82 3d e1 5e f6 3b
       0.04364761 0.054623988 0.06368167 0.0075186347
000190 94 cc 33 3b f2 21 6d bd 30 66 f8 bd 41 ac 27 bd
       0.002743517 -0.0578937 -0.12128866 -0.04093576
0001a0 9f 29 29 bd e3 ef 2a 3d 9f 05 f2 3d ec a1 a3 bc
       -0.04129946 0.04173268 0.118174784 -0.019974671
0001b0 4d 4b de b8 65 99 5f 3b 3a 31 28 bd 64 ae 95 bd
       -0.00010599811 0.003411853 -0.04106257 -0.07308653
0001c0 4b 4d aa bd e0 54 7f bd 36 02 0c bd 14 82 0a bd
       -0.08315524 -0.062336802 -0.034181796 -0.03381546
0001d0 92 df bb 3c 08 43 ca bc ff e5 80 bd e0 1c ac bd
       0.022933755 -0.024690166 -0.06293868 -0.08403945
0001e0 e3 c0 3c bd 2c f2 cc 3c 31 b2 09 3d 97 dc c0 bc
       -0.04608239 0.02501782 0.033617202 -0.023542685
0001f0 74 c2 39 bd 21 a1 85 3c d3 ae 66 3d da ca 8a bb
       -0.04535146 0.016312184 0.05631907 -0.0042356076
000200 96 24 9a bc d6 1e 8a 3c 55 88 17 3d 62 9c a4 3a
       -0.018816274 0.016860407 0.03699525 0.0012558813
000210 c5 9e f7 3c 95 9f 2e bc 3d 22 7b 3c da 22 54 3d
       0.030227074 -0.0106581645 0.015327987 0.05179105
000220 e0 98 2a 3d 37 24 eb bb 6e 5a 70 3c 31 ba 86 3d
       0.0416497 -0.007175948 0.014669998 0.06578482
000230 68 eb 2b bd 2e 9d 05 3d a1 85 26 bb 05 d2 d6 ba
       -0.041972548 0.0326206 -0.002540924 -0.0016389495
000240 91 9d 0d 3d 2e 51 4e 3c a1 54 df bd 8f 70 99 bc
       0.034574095 0.012592597 -0.109048136 -0.01873043
000250 b2 04 46 bd 98 a8 dd bc 8a 4b e2 bd 48 3f 31 3d
       -0.04834432 -0.02705793 -0.11049564 0.04327324
000260 fd d0 c0 3d 00 9c be 3a f6 d7 ad bc f7 48 87 bc
       0.09414861 0.0014542341 -0.021221142 -0.016514285
000270 11 2a 26 bc 78 ab 5c bc 62 3c ae bc be f9 76 bc
       -0.010141865 -0.013468616 -0.021269027 -0.015074192
000280 d5 78 82 bc 18 37 a2 bc 39 3d 21 bd 5f bf 00 bd
       -0.015926758 -0.019801661 -0.039365027 -0.031432506
000290 02 f2 76 bc 63 c9 f4 3a 9f 1d 1d bd d2 34 27 3c
       -0.015072348 0.001867574 -0.038358327 0.010205464
0002a0 49 9a 8b 3a 46 f2 85 3d 8b 32 6c bd 53 5c f3 bc
       0.0010650839 0.065403506 -0.05766539 -0.02970711
0002b0 f9 c1 53 3b 95 0d 56 3d 49 a1 b0 3d 6a e6 97 3d
       0.0032311662 0.052259047 0.08624513 0.07416995
0002c0 86 6b 08 3d 40 73 6a 3d ba 43 03 3d 1e 30 cc bc
       0.033305667 0.057238817 0.03204701 -0.024925288
0002d0 19 9e ca bc 90 d7 00 3d 1c 01 65 bd 8f 09 6f 3c
       -0.02473359 0.031455576 -0.05590926 0.014589681
0002e0 31 82 ba bc 54 b7 98 bc a6 89 1b bc 1f 99 16 3c
       -0.022767158 -0.018642105 -0.009493267 0.00919178
0002f0 82 9d e5 3c be c7 83 38 ee da c7 bb 8f 44 80 3d
       0.028029207 6.283772e-05 -0.0060990965 0.062630765
000300 52 c7 85 39 2a fe 88 3a 5b bd 47 bc be ae 82 3c
       0.00025516242 0.0010451723 -0.012191142 0.015952464
000310 d3 32 4b 3d 53 3e 6a bd f9 15 32 bc d0 a4 ce 3c
       0.049609017 -0.057188343 -0.0108694965 0.025225073
000320 9f ed c7 bb fc 62 06 bc aa a7 3a bc 8b eb df 3c
       -0.0061013247 -0.008202311 -0.011392513 0.027333995
000330 01 a6 6d 3d 1c 2e a3 bc c4 9d 7a 3b 20 22 e5 3c
       0.05801964 -0.019919448 0.0038241008 0.027970374
000340 b3 a0 ee 3c 18 29 ff 3c 4c 0a 88 bd 09 9b 2e bc
       0.029129362 0.031147525 -0.06642589 -0.01065708
000350 27 72 be 3c b5 3e c8 bd a1 52 5e bd 15 8b ce 3d
       0.023247791 -0.097775854 -0.05427802 0.100851215
000360 c8 5c bb 3d d0 4f 88 bc 9c b3 16 3e 33 44 15 3e
       0.09148556 -0.01663962 0.14716953 0.14576797
000370 24 2e aa bd 0a af 4d bd 58 6a 38 bd ce ef 03 bc
       -0.08309582 -0.05021576 -0.045023292 -0.008052779
000380 b2 c1 5f 3d 0b f4 ef 3c b5 d7 8b 3c 66 2b 76 3d
       0.05462808 0.029291173 0.01707063 0.06009998
000390 ac 76 39 3c 41 b1 ae bd 39 80 76 3d 40 83 85 3d
       0.0113197975 -0.08529902 0.060180876 0.065191746
0003a0 66 33 5b 3d 63 9d d2 3c 37 af 2b bc 0d 63 da bc
       0.053515814 0.025709813 -0.010478786 -0.02665856
0003b0 d0 8f 44 bd 23 2b b0 bd 69 78 9d bd 96 92 b3 bd
       -0.047988713 -0.08601978 -0.07688982 -0.087681934
0003c0 13 f2 f7 bd 1a ae 43 be 34 52 19 3c e6 e4 3e bd
       -0.12106719 -0.19109383 0.009357978 -0.046605013
0003d0 6e ae 43 bd 69 3e ae bd 46 7c 2b be b8 08 bc bd
       -0.04777377 -0.085079975 -0.16746625 -0.091813505
0003e0 ec fc e9 bc 59 be 9a bd 28 70 e9 3c b6 34 90 bb
       -0.028562985 -0.07555837 0.028495863 -0.004400815
0003f0 59 2f ac bd 47 f1 a1 bd 83 9a 3f bd 82 bd c1 bc
       -0.08407468 -0.07907348 -0.046778213 -0.023649935

dec.resblocks.2.convs1.1.bias f4 [32]
000000 8f 3d 0d bb dd 43 4f 3c c6 a1 f1 bc 51 e0 c8 3c
       -0.0021551584 0.012650457 -0.029496085 0.024521025
000010 3e a0 7c 3b 25 74 09 bc a0 f0 9b bb 20 9d 9e 3a
       0.003854766 -0.008389507 -0.0047589093 0.001210127
000020 14 6b 0c 3d 00 57 e2 bc ea a7 01 bc f9 18 f9 bc
       0.034281805 -0.027629375 -0.007913569 -0.030407416
000030 74 e3 3e 3d 28 fe 91 3c 93 e7 b8 3c a1 0f 27 bd
       0.046603635 0.017821386 0.02257136 -0.04078639
000040 97 c2 e1 bc 9b 82 48 3d bb 45 50 3c ff a8 91 3b
       -0.027558608 0.04895268 0.012711938 0.0044451947
000050 62 f9 09 bd 4f 7d 2a 3d 87 41 de bc 31 a6 99 3d
       -0.033685096 0.04162341 -0.027130855 0.075024016
000060 bf db b4 bc fe 64 9b bc 08 e9 da 3c 2f a0 00 3d
       -0.02207744 -0.018969055 0.026722446 0.031402763
000070 24 8d e7 bc 01 4a 82 3c df 9a fc bc b0 7a b9 3b
       -0.028265543 0.015904428 -0.030835567 0.0056603774

dec.resblocks.2.convs1.2.weight_g f4 [32, 1, 1]
000000 b2 a1 56 3f 7c 91 1f 3f 1d 80 f5 3e 0a 3d 3c 3f
       0.8384048 0.62331367 0.47949305 0.7353064
000010 6d db 12 3f 0f 9a 0c 3f 6f 2b 7a 3f 7f ea 0d 3f
       0.5736607 0.54922575 0.97722524 0.5543594
000020 37 e8 05 3f 84 b1 11 3f fd e4 10 3f 2b 66 c6 3e
       0.52307457 0.5691149 0.5659941 0.38749823
000030 3d 94 21 3f f6 b3 5f 3f 92 9b 11 3f 32 54 18 3f
       0.6311682 0.87383974 0.56878006 0.5950347
000040 0d 12 3f 3f 7f c7 8e 3f d2 16 c4 3e 1f 04 17 3f
       0.7463692 1.1154631 0.3829866 0.58990663
000050 a6 3e ec 3e 47 60 eb 3e f3 2f 02 3f d8 12 c1 3e
       0.46141547 0.4597189 0.50854415 0.3770969
000060 d8 5d d8 3e 9b 0e 04 3f f0 f1 1c 3f c3 45 01 3f
       0.42259097 0.51584786 0.6130667 0.5049707
000070 bb 93 10 3f 1a a4 d8 3e 77 5c ad 3e d2 ee ea 3e
       0.5647542 0.423127 0.33859608 0.4588533

dec.resblocks.2.convs1.2.weight_v f4 [32, 32, 11]
000000 c4 ba 67 ba e9 0f 13 3b ed 8e a1 3d 6d 7b 53 3d
       -0.0008839781 0.0022439903 0.07888589 0.05163138
000010 fa 28 e6 3d 22 33 50 bc 54 6e a7 3c fc 4c 9e bd
       0.112382844 -0.0127075035 0.02043835 -0.07729527
000020 b3 90 08 bd 71 da 38 3d ce 13 19 3c 19 86 25 bd
       -0.03334112 0.045130197 0.009343101 -0.04041109
000030 6a b5 80 bd 8f 17 c8 3c 6d 9e 3d bc db 5c 00 bd
       -0.06284602 0.024425296 -0.011573416 -0.031338554
000040 1c e5 32 bd 82 89 54 bd 96 3d ff 3c dc 6f 7f bd
       -0.043675527 -0.05188895 0.031157296 -0.062362537
000050 5a 7a 8b bc 1a 18 3e 3d d5 64 24 bd 0a ee 6d bd
       -0.017026115 0.046409704 -0.040135223 -0.05808834
000060 86 cf a4 bd bb a5 e8 bd 74 7c c7 bd 88 3c 05 be
       -0.080473945 -0.113597356 -0.097405344 -0.13011372
000070 18 99 d4 bd 74 90 82 bd 4e 6d 93 bd 43 15 1c bd
       -0.10380763 -0.063752085 -0.071985826 -0.038106214
000080 31 63 d3 bc ae 48 5c 3d ed ed 67 3d 7f 00 a0 bc
       -0.025804134 0.05378025 0.056623388 -0.019531487
000090 ee 50 34 bd 95 d3 15 bd ab b5 3d 3c 6f 8e c2 ba
       -0.044022493 -0.036578733 0.011578958 -0.0014843474
0000a0 f2 f9 a8 3c 3b 96 dd 3c ca da 5a ba b1 6d 86 bc
       0.020626996 0.027049175 -0.0008348642 -0.016409727
0000b0 0f eb a5 bd 97 48 39 bd 8f b7 bc bd 2f a8 09 be
       -0.081014745 -0.045235243 -0.092146985 -0.13443063
0000c0 21 32 60 be c5 3d 45 be c8 df f2 bd d8 1a 8f bd
       -0.21894123 -0.19261844 -0.11859089 -0.06987542
0000d0 fd 2f c5 bd e4 54 7d bd 3d 60 86 bd 89 4f 25 3d
       -0.09628294 -0.061848536 -0.06561325 0.040359054
0000e0 75 bc e7 bc 9c 55 ed 3c ff c4 1d 3d 2b bc 56 3d
       -0.028288106 0.028971486 0.03851795 0.052425545
0000f0 04 f0 a1 3c fe 97 06 bd c2 1e 13 3c 83 19 35 3d
       0.019767769 -0.032859795 0.008979501 0.044213783
000100 b4 e9 7a 3d 92 e9 67 3c c9 13 27 3e 86 21 bd 3a
       0.061258033 0.014154809 0.16316141 0.0014429546
000110 1b cb be bc 2c 3c 11 3d b4 ad 86 3d bb 15 9c 3c
       -0.023290208 0.035457775 0.065761 0.01905333
000120 10 a6 eb bb 72 83 5c 3d 8c 16 df 3d d1 5a 1e 3d
       -0.007191427 0.053836294 0.10892972 0.038660828
000130 68 28 c7 bc 53 14 5e bc da 4f 53 bc c3 ed c2 3a
       -0.02431126 -0.01355465 -0.012897456 0.0014871884
000140 b1 01 84 bb 11 b8 ad 3c 57 28 75 3d 2f 44 ff 3c
       -0.004028522 0.021205934 0.059852924 0.031160442
000150 1c f6 70 3d 97 6a f0 3a 6a d8 38 3b b4 e7 90 3d
       0.05882846 0.0018342313 0.0028205165 0.07075444
000160 cb 23 b5 bd 22 78 17 bd 8e 24 4d 3d d6 55 af 3d
       -0.088447176 -0.036979802 0.05008369 0.08561294
000170 47 42 7f 3d 97 b7 c5 3d e8 59 fa 3d c1 8b f0 3d
       0.062319066 0.096541576 0.122241795 0.11745406
000180 2b 18 63 3d 8c 85 43 3d f7 8d 52 3d 44 c1 b4 bc
       0.05544297 0.047734782 0.05140492 -0.022064812
000190 06 08 4f 3d 08 31 0f 3e 08 cd ad bd 4e d0 01 3c
       0.05054476 0.13983548 -0.08486372 0.007923199
0001a0 3c 74 77 3d 51 64 14 3e 79 8f 25 bd fc 17 a9 bd
       0.060413584 0.14491393 -0.04042003 -0.08256528
0001b0 df 06 6a bc 9e 06 78 3d 66 e8 41 3b 48 4d 5d ba
       -0.014283865 0.060553186 0.0029587983 -0.0008441997
0001c0 22 9b 4e 3b a0 7c f1 3b 92 df de 3b bb 34 69 3c
       0.0031525572 0.007369593 0.006801554 0.014233763
0001d0 87 3c 20 3c 28 40 93 3c f2 c4 7d 3c 92 22 f8 3b
       0.009780056 0.017974928 0.01548885 0.0075724805
0001e0 3c 03 2e bb 63 70 a6 bc f4 b0 8c 3b 2b 6d 80 3c
       -0.002655222 -0.020317262 0.0042935554 0.015677055
0001f0 b3 9c cc 3c 97 ef 32 bc 66 67 bf ba 8f bd d3 bc
       0.024977064 -0.0109213805 -0.0014602959 -0.025847225
000200 dc ee f7 bc a6 52 11 3c ac d3 dc bb e3 d9 31 bb
       -0.030265264 0.008869803 -0.0067391004 -0.0027137927
000210 ff df 10 bd 1b bc 2a bd 53 75 ab bc 5f e9 73 bd
       -0.03536987 -0.041683298 -0.020929968 -0.059548732
000220 00 a1 c6 bd 80 8d 22 bd ec 5e a7 bc 70 2e 39 bd
       -0.09698677 -0.039685726 -0.020431004 -0.045210302
000230 40 27 b2 bc 64 2c c8 3c 73 d8 f2 3d 4c ba 9a 3c
       -0.021747231 0.02443523 0.11857691 0.018887661
000240 fd 32 43 3d 6c 2c 80 3d b1 8b da 3c 00 e5 1d bc
       0.047656048 0.06258473 0.026677938 -0.009637117
000250 4e da e2 bc 9d 60 15 3d 19 d2 a7 bc c9 1c 5f bd
       -0.027691986 0.03646909 -0.020485925 -0.05447081
000260 c7 c2 66 3d e0 3c e2 3d 5c cb be 3c 4f 65 05 3c
       0.056338098 0.11046767 0.023290329 0.00814183
000270 34 c9 15 3d 0a 9a 94 3d 9f 4f 9d 3d a0 94 3f 3d
       0.036568835 0.07255943 0.07681202 0.0467726
000280 9d 95 39 3d 6f 3a 02 bd e1 bc 59 bc 02 90 ed 3b
       0.045308698 -0.031794008 -0.013289661 0.007249833
000290 43 f3 b5 3b 21 51 4b bd 8e b6 6f bc 7b 4b 1b 3c
       0.0055526807 -0.049637917 -0.014630927 0.009478445
0002a0 35 b6 e0 bb 0b fa 3b bd e6 34 7a bd 88 32 44 3c
       -0.0068576583 -0.045892756 -0.061085604 0.011974938
0002b0 df 0b 0a bd af 11 ae bc ae 73 12 3c 06 0a 38 3d
       -0.033702727 -0.021248667 0.008938713 0.044931434
0002c0 d1 8b 86 bc 5c 9d 79 3c fb 1a d9 bc 86 7c 5a 3a
       -0.016424092 0.015235271 -0.026502123 0.00083345955
0002d0 2b 21 b5 ba 14 d4 32 3d 35 88 1c 3d f5 9f 6e bc
       -0.0013819089 0.043659285 0.038215835 -0.014564504
0002e0 18 c9 1f bc 1c fa e1 3c f1 04 33 3c 04 2c d2 3d
       -0.009752534 0.027585082 0.010926471 0.102623016
0002f0 7a 13 cf 3d c0 30 39 3d 00 ec 18 3d 0a ef 7c 3d
       0.10111137 0.045212507 0.037334442 0.061751403
000300 47 6a 8a 3c ac aa eb bb 6d a9 ff 3b aa 43 66 3d
       0.01689638 -0.0071919765 0.0078021795 0.056216873
000310 58 fb 72 bc 3d ca d9 bc f4 d7 d1 3b 33 b5 80 bc
       -0.014830433 -0.026585693 0.0064039174 -0.015711403
000320 98 b3 44 3d 06 d7 73 bb 80 2d 51 bd ff 93 b0 bd
       0.048022836 -0.0037207021 -0.051068783 -0.08621978
000330 77 ec 96 3d bc 91 0f bd 6f 28 f7 bc 67 1f ff 3c
       0.07369321 -0.035051093 -0.030170647 0.031142903
000340 c1 38 bb 3c d1 1c 1e 3e bd 2c b6 3d a4 56 d7 3d
       0.02285421 0.1544068 0.08895252 0.10514572
000350 24 5a cd 3d 81 ca 33 bc ae 42 75 bd 36 e3 c3 bd
       0.100269586 -0.010973574 -0.059878044 -0.095648214
000360 11 b3 5d 3d f6 a7 05 3d 34 98 c0 bc f7 ed 43 bd
       0.05412585 0.032630883 -0.023510076 -0.047834363
000370 39 9c 1d bd 9a 13 de bc c4 01 37 bd 84 96 dc 3c
       -0.038479064 -0.027108956 -0.04467942 0.02692724
000380 d0 e1 0c 3d 34 75 ab 3a e4 16 83 3d b1 03 bb 3d
       0.03439504 0.0013081194 0.064008504 0.091315635
000390 31 d2 b2 bc df 2a c0 bc e7 38 c7 bd f3 26 05 bc
       -0.021828743 -0.023457943 -0.0972765 -0.008126962
0003a0 27 7a f0 bc f8 c0 b0 bd 79 32 ae bc 16 41 86 3d
       -0.029355122 -0.08630556 -0.021264302 0.06555383
0003b0 29 ff 00 3e cb 9c 90 bc b6 e2 73 bd 25 58 9d bc
       0.12597336 -0.01765289 -0.05954238 -0.01920707
0003c0 ec 0c 2c 3d 43 05 3f bb 85 fe d4 bd ee 29 2e 3c
       0.04200451 -0.0029147423 -0.10400108 0.010630114
0003d0 6e 2b df 3d 82 74 9a 3d f5 ea 23 bd a0 13 58 bd
       0.108969554 0.07541753 -0.040018994 -0.05275309
0003e0 3f b4 80 3d e6 d2 8f 3c 26 f4 2c bd e9 95 9e bc
       0.06284379 0.017556619 -0.042225026 -0.019358592
0003f0 92 0d 35 3d 33 ab c3 bd d4 81 8f bb c0 89 10 bd
       0.044202395 -0.09554138 -0.0043794904 -0.03528762

dec.resblocks.2.convs1.2.bias f4 [32]
000000 77 7a 07 bd 5a 5b a8 bd 14 be a0 bc 94 91 b5 bc
       -0.033075776 -0.08220549 -0.019621886 -0.022164144
000010 74 48 69 bd 33 57 5c bd f4 43 1e be 5f ad 38 bc
       -0.056953862 -0.053794097 -0.1545561 -0.011271804
000020 24 49 43 bc e6 79 27 3c ac 3a a5 3c 1e 5b 8a 3c
       -0.011919294 0.010221934 0.020169578 0.016889151
000030 80 d8 b6 bd 39 1e 81 bd b5 d5 49 3d 19 04 29 bc
       -0.08928013 -0.06304593 0.049276073 -0.010315918
000040 d7 ec 6e 3c 7a f1 49 bd fa c5 29 bc 4c e0 05 bc
       0.014582834 -0.049302556 -0.010362143 -0.008171152
000050 65 d2 23 bd 53 b2 23 3d fb 87 4a ba e0 16 2d 3d
       -0.03999557 0.039964985 -0.0007725951 0.042258143
000060 02 a9 4b bc 05 43 1e bb 0c ab c8 3c dc 0f e8 bc
       -0.012430431 -0.0024148833 0.024495624 -0.028327875
000070 6d 5b c0 bc 7d eb 01 3d 73 31 b9 3c 53 ad c1 bc
       -0.023481095 0.03171872 0.022606587 -0.023642218

dec.resblocks.2.convs2.0.weight_g f4 [32, 1, 1]
000000 42 95 00 3f 6b 5d 0a 3f 2f a5 7d 3f 2d 29 07 3f
       0.5022775 0.54048795 0.99080175 0.52797204
000010 42 51 15 3f f2 82 03 3f 90 9d e4 3e 4f d2 f8 3e
       0.58327115 0.5137168 0.4465146 0.48597953
000020 fa 73 1d 3f cd c3 05 3f 1a ba 24 3f d6 aa d5 3e
       0.6150509 0.52251893 0.6434647 0.417319
000030 2b 8e 35 3f f3 46 1d 3f 27 fb 33 3f ef 48 0c 3f
       0.70920056 0.61436385 0.70305103 0.5479879
000040 00 20 ce 3e 26 3e 0c 3f 09 63 4f 3f a9 45 0c 3f
       0.4025879 0.5478233 0.8101049 0.5479379
000050 37 13 21 3f b6 35 06 3f 1e 68 09 3f fb f0 d5 3e
       0.62919945 0.52425706 0.53674495 0.41785416
000060 67 0f 0b 3f ad cd 19 3f 1c f8 0b 3f a7 d9 28 3f
       0.5432038 0.6007946 0.5467546 0.6595711
000070 e6 99 4b 3f 10 4e 09 3f 5a 2f 19 3f 73 da 0c 3f
       0.79531705 0.5363474 0.5983788 0.5502083

dec.resblocks.2.convs2.0.weight_v f4 [32, 32, 11]
000000 4e 48 59 bd 59 11 ab bd 85 ab e6 39 1b cc 23 3d
       -0.05304747 -0.08352918 0.0004399681 0.039989572
000010 ad d5 3a bd 6e b2 69 3c 8d 46 e4 3c 0c 4e 1f bd
       -0.045613933 0.014263732 0.027865672 -0.03889279
000020 d6 67 22 3b 0a 9a 43 3d fa 20 ae bd 0f 1a fd bc
       0.002478113 0.047754325 -0.085023835 -0.030896215
000030 7d 9a 41 3d ed 91 a5 bc ef ec 41 bd fc 0e 37 3d
       0.047266472 -0.020211184 -0.047345098 0.044692025
000040 53 7b 5e 3c 91 9f 7d 3d 26 3d e4 3b 83 11 45 bd
       0.0135792075 0.061919753 0.0069652973 -0.048112404
000050 9f 00 87 bc 06 67 45 3a 1a 4d f4 bc 40 e4 f5 bc
       -0.016479788 0.00075303053 -0.029821921 -0.030016065
000060 14 a5 02 3d f4 9b fa 3b d9 10 a4 bc 48 1e 74 bb
       0.031895712 0.0076479856 -0.020027565 -0.0037249494
000070 bb a7 15 3d 5e a2 35 bd 0e fe 4b 3c bf 35 b2 bc
       0.036536913 -0.0443443 0.012450708 -0.021754144
000080 6e 7c 20 3d e8 2d b8 bc 63 8e 1c bd 2f f1 88 bb
       0.039181165 -0.022482827 -0.038221728 -0.004179142
000090 e3 36 01 3d 2a 77 c3 3c 6b fd 86 bc 97 f7 53 3b
       0.031546485 0.023860533 -0.016478261 0.003234362
0000a0 42 be 1c 3d da 98 8b 3d 9d c7 af 3c bc 2e 06 bd
       0.03826738 0.068162635 0.021457488 -0.032759413
0000b0 3a 39 25 bd e3 1a 9a 3b 55 3f e2 3c d6 e5 c6 bc
       -0.04033778 0.004702912 0.02761809 -0.024279516
0000c0 3b 21 31 3d 88 03 28 bd e8 13 9e bc 5e 2b ca bc
       0.04324458 -0.041018993 -0.019296601 -0.024678882
0000d0 f8 e2 b0 bc c1 a4 fe 3c 4f 73 09 3d 13 6c 43 3d
       -0.021592602 0.03108442 0.033557232 0.04771049
0000e0 9b 9e d3 3c 88 60 3d bd 91 96 8a 3d 14 ef 1e 3d
       0.025832465 -0.046234637 0.067669995 0.03880222
0000f0 2d 3a 13 bd 8c 32 1f 3d 69 63 c0 3c 03 36 ac 3c
       -0.035944153 0.038866565 0.023484902 0.021021849
000100 0f 65 68 3c 1b e2 e5 3c 5f 4f 75 3b db c3 85 bc
       0.0141842505 0.028061917 0.0037431342 -0.016328743
000110 c9 a6 5d bd 18 5f 5c bd f8 2a 49 3d 0f 5f a9 3c
       -0.054114137 -0.053801626 0.049113244 0.02067521
000120 81 ef d7 3c d5 f6 ba b9 3d 56 25 bd 8a 50 8e 3d
       0.026359322 -0.0003566059 -0.040365446 0.06948955
000130 16 ba 14 bc d0 15 14 3c 20 a8 56 bc 34 b1 34 bd
       -0.0090775695 0.009038404 -0.013101608 -0.044114307
000140 ca 49 3b bd 4c 10 70 bd 61 63 da 3c dc c9 1b bd
       -0.045724668 -0.058609292 0.026658716 -0.038034305
000150 8e f5 91 3a 7a 0f 52 bd fa cb 5c bd b6 cb 6f 3d
       0.0011135803 -0.05128429 -0.053905465 0.058543883
000160 97 55 34 3c 97 e1 33 3d 37 8c 2d bb d6 54 00 3c
       0.011006734 0.04391631 -0.002648128 0.007832726
000170 d9 19 51 bc ec f5 20 3d 6b ef 99 3d c8 6e 32 3c
       -0.01276251 0.03929703 0.075163685 0.01089067
000180 b4 4c a9 bc ac 87 82 3d 70 64 f3 bc 54 8b 12 3d
       -0.020666458 0.063735336 -0.029710978 0.035777405
000190 46 4b 1c 3d ab 72 55 3d 2a 74 5d 3d fa 83 32 bd
       0.038157724 0.05211131 0.05406586 -0.043582894
0001a0 ad 70 b6 bc 0e f1 f6 bc 69 56 02 bc c8 5e 43 bd
       -0.022270525 -0.03014424 -0.007955172 -0.047697812
0001b0 61 35 0c 3d 20 6b 3e 3d e7 e0 60 3d 3d 8d 86 3c
       0.034230594 0.04648888 0.054901984 0.01642477
0001c0 29 6e 09 bc db c8 2f 3d 19 77 e3 bc 56 db 77 3d
       -0.008388081 0.04291616 -0.027766751 0.06051191
0001d0 30 57 0b 3c 66 32 cc bc cc a3 47 3d 60 35 3b 3d
       0.008504674 -0.024926376 0.048740193 0.0457052
0001e0 33 16 8a bd bd 0a f2 3c fc 6b 0f 3d ba 04 4b 3d
       -0.067425154 0.029546136 0.03501509 0.049565054
0001f0 6a 08 70 bd f3 cc 65 bd 35 bd 8a 3c 32 cd 1c 3d
       -0.058601774 -0.056103658 0.016935924 0.038281627
000200 a8 a9 f6 3c 9d 64 ca bc fa b0 4b 3d 6b cb e5 3c
       0.030110195 -0.02470618 0.049729325 0.028051099
000210 20 c2 26 bd 38 ea 99 bd cb ff 84 bc f1 0f 4b 3d
       -0.040712476 -0.07515377 -0.016235253 0.04957575
000220 cd 4f 66 bd 2a 18 1b 3d f4 4d 21 3d af fb 3e bb
       -0.056228448 0.03786484 0.039380983 -0.0029141714
000230 d1 e7 68 bd ac bb dd bc 2c 9f cb 3c 6a 28 71 bd
       -0.056861702 -0.027067028 0.024856173 -0.058876432
000240 ea 4a 94 bc 05 55 69 3d b4 ec 89 3c f7 4a b5 3d
       -0.018102128 0.056965847 0.016836502 0.08852189
000250 2f 40 f4 bc 45 2c 12 3d f1 56 66 3d 1c 1f 64 3d
       -0.029815761 0.03568675 0.056235258 0.05569373
000260 8a db a9 bb 9e 12 6a 3b ee 26 e8 bb 21 ad 9f bc
       -0.005183642 0.0035716663 -0.007084719 -0.019491734
000270 75 85 44 3d 66 10 d9 ba d0 be 65 bc 3d e0 1d bd
       0.047978837 -0.0016560673 -0.014022544 -0.03854393
000280 b8 50 4c bb dc 20 4f bc 84 7b 2d bd 92 75 23 3b
       -0.0031176042 -0.012642112 -0.04235412 0.0024941904
000290 42 e5 65 bd 28 c3 39 bb b6 e9 b2 3c ee fc 09 bd
       -0.05612684 -0.0028345082 0.021839958 -0.03368848
0002a0 02 9e 8e 3c 1d 50 ce bc d5 be 22 3d c2 87 0b 3d
       0.017409328 -0.025184685 0.039732773 0.034065016
0002b0 92 22 3b bd 5f d8 78 bb c4 73 2a 3d 63 f6 3e 3d
       -0.045687266 -0.0037970764 0.04161431 0.04662169
0002c0 b4 8c d8 bc fa 29 ec 3c da ac 2c bc f4 1b 42 bb
       -0.02643428 0.02882861 -0.010539258 -0.0029618712
0002d0 12 7f 22 bd 56 ac 25 3c a9 15 2c bd 1e 8c 9c bc
       -0.039671965 0.010111889 -0.042012844 -0.019109782
0002e0 87 7d eb bc fd 42 e5 3c 0d 0b 5a 3d 2a b2 a1 bc
       -0.02874638 0.027986044 0.053233195 -0.019738276
0002f0 58 21 02 bd b6 ad 3d 3d 60 6f 0f bd ff 83 c4 bc
       -0.03177008 0.04630824 -0.035018325 -0.023988722
000300 be 76 15 39 49 0b d7 bb a6 df 27 3c a7 7e a4 bc
       0.00014253982 -0.0065626246 0.010246193 -0.020079924
000310 ca 17 17 bd 99 4e 7c bc b2 a6 15 3d eb 3e 6b 3c
       -0.03688792 -0.0153995985 0.036535926 0.0143582625
000320 50 dd 2e bd 16 df 1e bd ac 84 3c bd 92 e1 66 3d
       -0.04269153 -0.03878697 -0.046024963 0.056367464
000330 48 24 3f 3d dd 99 63 bc 3e 21 18 bd 93 9c 09 bd
       0.04666546 -0.013891664 -0.037141077 -0.033596586
000340 f8 f8 fc b9 20 78 4c bd 10 e7 a6 bc db c8 b9 bc
       -0.00048250682 -0.049919248 -0.020373851 -0.022678783
000350 61 4b af bc 1c 59 c3 3c 16 27 4c 3d 86 1f 26 3d
       -0.021398248 0.023846202 0.049841963 0.040557407
000360 ff 13 05 bd e8 e0 b8 3b fe 7e 81 bc cf 3a a3 ba
       -0.032489773 0.0056420453 -0.015807625 -0.0012453439
000370 c2 fc 75 3c 4f 6c 4e ba 44 a2 45 3d 91 56 ab 3c
       0.015013875 -0.00078744156 0.04825045 0.020915302
000380 d0 b2 13 3d e5 3e 8b bc e5 49 f0 bc 9d 66 a5 bb
       0.0360592 -0.016997764 -0.02933211 -0.005047633
000390 89 19 5b 3d 6e 24 42 bd 1f fa fd 3c a9 d6 7f 3c
       0.05349115 -0.047398023 0.031003056 0.015615144
0003a0 10 16 03 3d 09 23 13 3d 71 b8 0a bd 64 d1 e5 bc
       0.032003462 0.035922084 -0.033867303 -0.028053947
0003b0 5e d8 fa bc 70 59 6f 3c d8 ad 21 bd 29 17 20 bd
       -0.03062075 0.014608726 -0.03947243 -0.039084587
0003c0 9e 8d b6 bc 29 f3 d0 3c 9a 13 8b 3c e4 f2 5f 3d
       -0.022284325 0.025506573 0.01697712 0.054674998
0003d0 ac aa a4 3c 7f 43 ef bc 6e bb 68 3c 85 a9 33 bd
       0.020100914 -0.02920699 0.014204843 -0.04386284
0003e0 6b 16 bc bb e8 2e c8 bc 2d 2e b5 bc 75 ab ca 3c
       -0.005739977 -0.02443643 -0.022116745 0.02473996
0003f0 d1 d4 24 bd 3e 1d 13 3d ce ef 03 bd 85 24 8b 3c
       -0.04024202 0.03591656 -0.032211117 0.016985187

dec.resblocks.2.convs2.0.bias f4 [32]
000000 96 a8 25 3b 86 ab 8d bb 48 d6 4b bc 6f a8 4a ba
       0.0025277487 -0.0043234257 -0.012441225 -0.0007730787
000010 95 7d b5 3c ec 8f 21 bc ac 0d bf 3c 6f 61 d9 bc
       0.022154609 -0.009860974 0.023321949 -0.026535718
000020 af 0d b1 3c 3c b1 ff bc 29 0e 5d 3c a4 b0 57 bc
       0.02161297 -0.031212442 0.013492146 -0.013164673
000030 c5 59 a8 bb 05 de 25 3d a4 9c 82 3b dd 82 a0 3d
       -0.0051376545 0.040494937 0.003985958 0.0783746
000040 ba 3c 14 3d da 1d e1 3b d4 1f 7d bc de bc 71 3d
       0.036190726 0.0068700137 -0.015449483 0.05901801
000050 74 61 fd 3c 7a 87 af 3c 71 40 b1 3c f7 b2 1d 3d
       0.030930258 0.021426905 0.021637173 0.038500752
000060 b6 f0 6e 3d 8b 18 ad 3d a9 90 84 bb 01 a3 dc ba
       0.05833503 0.08451947 -0.004045565 -0.0016833247
000070 af 09 31 bd 9a 7b 52 bc 0a 42 4b 3c 49 26 59 3d
       -0.043222126 -0.012846852 0.012405882 0.053015027

dec.resblocks.2.convs2.1.weight_g f4 [32, 1, 1]
000000 c0 cd f5 3e da 09 f6 3e 5b 9d 84 3f 7d cf f7 3e
       0.48008537 0.4805439 1.0360521 0.48400488
000010 1f f3 3c 3f 17 ec ac 3e 13 0f fd 3e b8 94 d1 3e
       0.73808473 0.33773872 0.49425563 0.40933776
000020 35 43 13 3f 8d dc 0b 3f 25 9d 9c 3f 03 32 e4 3e
       0.57524425 0.5463341 1.2235457 0.44569406
000030 3a 7d 21 3f 22 cf 0b 3f ce b6 29 3f 4e 80 bd 3e
       0.63081706 0.54612935 0.6629456 0.3701195
000040 1e 5a a9 3e 1f 2c fc 3e 7f ed 09 3f b8 af d1 3e
       0.33076566 0.49252412 0.53878015 0.40954375
000050 c4 d2 17 3f fc 54 b0 3e 17 cb 16 3f 45 7d bb 3e
       0.5930598 0.34439838 0.5890364 0.3661901
000060 75 e5 10 3f c2 01 14 3f e9 be f4 3e 7a db 16 3f
       0.56600124 0.5781518 0.47801903 0.58928645
000070 e9 3b 1b 3f f3 ed f6 3e 05 ff 4a 3f 98 92 0e 3f
       0.6063829 0.48228416 0.7929538 0.55692434

dec.resblocks.2.convs2.1.weight_v f4 [32, 32, 11]
000000 bf dc d7 39 c0 2a 3b bd a6 3e ca 3c 08 8c 7c bc
       0.00041172464 -0.045695066 0.024688076 -0.015414245
000010 6b 21 22 3d 8b e4 e0 3c e3 6b 1b 3d df 21 12 3c
       0.03958265 0.027452728 0.037944686 0.008919208
000020 12 e4 73 bd 3d 21 32 3d 39 0b d0 3b 5b b1 43 3d
       -0.059543677 0.04348873 0.006348994 0.04777656
000030 76 af 54 bc f8 24 20 3c 14 a5 e4 bc 31 90 1e 3d
       -0.012981286 0.009774439 -0.027910747 0.03871173
000040 dc 5c 90 3c 9a 4c 48 bd c7 dd 43 bd 33 02 83 3d
       0.017622404 -0.048901178 -0.047818925 0.06396904
000050 8a 13 12 bd ed 5a 73 bd 81 94 d3 bc b8 46 10 3d
       -0.035663165 -0.059412885 -0.025827648 0.035223693
000060 24 32 16 bd 38 e7 d4 bc 94 ba d0 3c d8 a0 57 bd
       -0.03666891 -0.02598916 0.025479592 -0.052643627
000070 df 19 1a bd 0c 30 79 3c 3b d7 0f bd 5f 87 4a 3d
       -0.03762233 0.015209209 -0.03511737 0.049445506
000080 ec 28 c4 bc f4 64 07 3d 92 65 7b 3c df 6e 9c 3c
       -0.023945294 0.03305526 0.0153440405 0.019095836
000090 9d 51 0e bc c5 00 4b 3c ee 42 0f 3d f5 b0 df 3c
       -0.00868645 0.01239032 0.03497594 0.02730606
0000a0 b7 0e e2 bc fe 74 bb bc d3 07 7a bd f4 7b 13 3c
       -0.027594907 -0.022882935 -0.061042618 0.009001721
0000b0 3e 00 4e bd c5 eb a0 3c 8d 50 2a bd 42 0a 72 3d
       -0.0502932 0.019643674 -0.041580725 0.059091814
0000c0 30 52 42 bd cc ca 7b 3c 26 e8 89 3d dd 31 12 bd
       -0.04744166 0.015368175 0.06733732 -0.035692085
0000d0 3b d5 13 3d dc d4 24 bd 46 76 9d 3b 28 25 1c bc
       0.036092024 -0.04024206 0.004805359 -0.009530343
0000e0 e4 9b 06 bd 6f 68 dc bc 06 7f e6 bc ce db 2a b9
       -0.032863513 -0.026905267 -0.028136741 -0.00016294347
0000f0 0e 9c 64 bd 12 32 4b 3d 61 f0 8c bb 14 48 8a bc
       -0.055812888 0.049608298 -0.0043011163 -0.016880073
000100 d6 db 4d bd 10 4b c6 3c 73 9b f8 3c d6 29 10 3d
       -0.05025848 0.024205714 0.030347561 0.035196148
000110 ed fa 28 bd 55 8f b9 bc bd 66 1f bc c1 c5 fa 3c
       -0.041254926 -0.022651354 -0.009729085 0.030611875
000120 54 c0 dc 3c 82 45 cd bb d7 2f ad 3c 10 ff 25 3c
       0.026947178 -0.0062643895 0.021140976 0.010131612
000130 a0 50 83 3c e2 c3 02 3c e8 a4 cd bb fd 1d 85 bc
       0.016029656 0.007981272 -0.006275762 -0.016249651
000140 2d c6 7b 3c 61 24 8e 3c 3d ec 8a bb 08 d3 b8 bc
       0.015367073 0.017351331 -0.0042395876 -0.022561565
000150 8e b1 3a 3c a2 3b 77 3d ad b9 2f 3b 71 b5 11 3d
       0.011394871 0.060359605 0.0026813552 0.035573427
000160 b7 03 7c bd 6c 4d 5f 3d 4b 74 4d bc 85 25 92 bd
       -0.06152698 0.054517195 -0.012539933 -0.071360625
000170 49 47 52 bd f3 85 83 3a d7 e6 7c 3c 6f 50 9d bd
       -0.051337514 0.0010034427 0.015435896 -0.07681357
000180 00 fb 08 3d 96 82 30 bd 03 6c 10 bd fa 8f 1e bd
       0.033442497 -0.043093286 -0.035259258 -0.038711525
000190 78 91 8b 3d 08 9b 82 3d ce 1f 20 3d fc 54 07 bd
       0.06814855 0.06377226 0.03909283 -0.03304003
0001a0 3b ca 37 3d 9f 62 7f 3c d8 6b 55 bc 9f 66 80 bd
       0.044870596 0.015587478 -0.0130262 -0.062695734
0001b0 22 15 ee 3c 62 d7 63 bc d9 84 24 bd 6d af ec 3c
       0.029062811 -0.013906332 -0.040165756 0.028892243
0001c0 bf bd 7b bb 94 ba a0 bb aa 33 3a 3c 5a ed 46 bb
       -0.0038412658 -0.0049050543 0.011364857 -0.0030353875
0001d0 07 a6 d5 3c 4c c0 2b 3d 2b 54 30 bd 1b 60 0b 3d
       0.026080145 0.041931435 -0.04304902 0.0340272
0001e0 71 dc ac bc 83 56 5f bd fb 50 49 3c 1b 33 44 3d
       -0.021101208 -0.054525863 0.012287374 0.0479003
0001f0 57 2b 51 3b 16 73 32 bd 0f 9e 62 3d 8b 79 b4 bc
       0.0031916702 -0.043566786 0.055326518 -0.022030612
000200 d9 8d a8 bc 6d b5 d8 bc 35 07 45 3d ec af af 3d
       -0.02057545 -0.026453698 0.048102576 0.08578476
000210 f4 3e 70 3d 65 68 b4 3d 20 7f ce 3c b4 fd 3c bd
       0.058653787 0.08808974 0.025207102 -0.046140388
000220 a1 01 2f bd 99 93 7b 3d f5 d9 ef 3c 5a 96 f7 bc
       -0.042726163 0.061420057 0.029278735 -0.03022306
000230 f5 ee 31 3d eb 5b 3b bc 2e 49 c3 3b db 94 49 3d
       0.043440778 -0.011435489 0.0059596514 0.049214225
000240 56 a8 51 bd 44 2f bd bc 0e 43 da 3a 79 2c 86 3c
       -0.05118593 -0.023093827 0.0016652064 0.016378628
000250 d6 4f 2d 3d f2 6a 85 bd 8a bf dc bc e8 6a 82 ba
       0.042312466 -0.06514539 -0.026946802 -0.0009950073
000260 80 9c 1f 3c e9 74 41 bd ed 3e 8f bd 23 17 17 3d
       0.009741902 -0.047230635 -0.06994424 0.0368873
000270 5a bf 44 3c 1f 13 3a bd 88 a6 be 3c 22 3a 51 bd
       0.012008512 -0.04542839 0.023272768 -0.05108083
000280 c9 9e 8a bb a0 65 6d 3d 67 e8 1c bd 42 ef 61 bc
       -0.0042303544 0.057958245 -0.038307574 -0.013789954
000290 17 97 c1 bc b5 b9 07 bd 2d 42 af 3d b6 00 e6 bc
       -0.023631616 -0.03313609 0.08557544 -0.02807651
0002a0 90 da 3b 3d 26 4c b0 bc 9a 19 a4 bc f8 83 9e 3c
       0.045862734 -0.021520685 -0.020031739 0.019350037
0002b0 ab 49 f9 bc e2 5d d4 bc f3 92 f5 3b 9d 97 95 bc
       -0.030430635 -0.025923673 0.0074943244 -0.018260771
0002c0 61 4c 1b 3d 6e aa 71 bd 5c 3b fb 3b ec 89 20 3d
       0.037914637 -0.059000425 0.0076669883 0.039194033
0002d0 57 03 0a 3d 3f 4a 24 3d c4 cd 29 bd 35 6f 2b bd
       0.03369459 0.04010987 -0.041456 -0.041854102
0002e0 d9 9f 4f bd 3f 14 c7 3c 5e d7 3d bd a9 bc 6f 3d
       -0.050689552 0.024301646 -0.04634797 0.05852953
0002f0 14 4a 58 bd df 50 9f 3c 7e d8 fa 3c 2c 00 5b bd
       -0.05280502 0.019447742 0.03062081 -0.05346696
000300 40 e5 80 bc 7f c8 96 3c f0 20 60 bc 4b 51 d3 3c
       -0.015734315 0.01840615 -0.013679728 0.0257956
000310 73 ad 56 3d 23 f1 d1 3c 4d 1a 95 3d 74 db 58 3c
       0.052411508 0.025627678 0.07280407 0.013235915
000320 4b 47 ca 3c ba e0 87 3b ad 03 38 3d 02 1d fd 3c
       0.024692198 0.0041466625 0.04492538 0.030897621
000330 49 cb 09 bd 14 3a 96 bc bb 58 f4 3c b2 9e e3 3c
       -0.033641133 -0.01833824 0.029827466 0.027785633
000340 bf 30 f5 bc 39 c6 b0 bb 22 54 79 bb cb 9c 4a bc
       -0.02993047 -0.0053947237 -0.0038044532 -0.012366484
000350 c5 6e d5 3c 8f 87 52 3b a8 4d 06 3d e2 ae a4 bb
       0.026053796 0.0032124256 0.032788903 -0.0050257305
000360 bc dc 34 3c 7d e8 97 ba 1d e0 88 bc e0 0d c9 3b
       0.011038955 -0.0011589673 -0.016708428 0.006135687
000370 b7 87 0b bd 97 c3 09 3c dc 1a 0f 3d e5 86 20 3d
       -0.034064975 0.008408449 0.034937724 0.039191145
000380 fd dc 7c 3c 80 fd 62 3c d8 4a 9c 3c 83 d1 3e 3d
       0.015433547 0.013854384 0.019078657 0.046586525
000390 87 cc 72 bd 9a b3 bd 3a e3 ab 1e 3d a6 f5 8c bd
       -0.059277084 0.0014473081 0.038738143 -0.06882791
0003a0 47 22 c1 3a d4 29 c8 bc b8 6c 25 bd 36 7a 34 bd
       0.0014734947 -0.024434008 -0.040386885 -0.044061862
0003b0 41 c5 b6 bc c8 99 5e 3d 9e e3 09 3d 50 7c f0 3b
       -0.022310855 0.054345876 0.03366434 0.007339038
0003c0 05 00 b0 bd 48 e3 42 3d 91 01 85 3c d0 e5 56 bd
       -0.08593754 0.047580034 0.016236098 -0.05246526
0003d0 a1 4c 82 bc df 40 4c 3d 4a ee 29 3b f9 00 99 bc
       -0.01590568 0.049866553 0.0025929385 -0.018677222
0003e0 5a 73 75 bd b1 1f 53 bd ca d6 56 bd 4d a1 3a 3b
       -0.05992446 -0.051543895 -0.052450933 0.002847749
0003f0 60 17 d7 bc ab f5 aa 3d 5e a9 3b bc 7a 15 18 3d
       -0.026256263 0.08347639 -0.0114539545 0.037129857

dec.resblocks.2.convs2.1.bias f4 [32]
000000 1c fb d9 bc 03 37 0f 3c 92 a0 ec bd 7f b0 c8 bc
       -0.026608996 0.008741143 -0.11554064 -0.024498222
000010 5a 91 b9 bc 37 11 21 3d 2c e2 d4 bc bb 53 72 3d
       -0.022652317 0.039323058 -0.025986753 0.059161883
000020 a3 e2 2e 3d cc 2d 85 bc 63 93 81 bd a3 23 11 bd
       0.042696606 -0.01625719 -0.0632694 -0.035434376
000030 13 03 3a bc c4 f9 d0 3c 46 20 bc 3b f9 3b da 3b
       -0.011353272 0.025509723 0.005741152 0.0066599813
000040 49 fa 17 3d 89 66 9a 3c ea 40 77 3d ee f9 18 3d
       0.037103925 0.01884772 0.06036464 0.037347727
000050 84 2b 2d bd a2 a5 fd bc 65 f7 56 ba 6b 1a e8 bc
       -0.042277828 -0.030962769 -0.0008200317 -0.02833291
000060 a4 d3 ba bc 27 31 68 bc 87 6f 09 bc f9 d5 95 3c
       -0.022805996 -0.014171875 -0.008388407 0.018290507
000070 0a 7e 07 be f8 68 ba bc 9d 9b d6 3c de 7f 18 3b
       -0.13231674 -0.022755131 0.02619725 0.0023269574

dec.resblocks.2.convs2.2.weight_g f4 [32, 1, 1]
000000 b3 b8 b2 3e 4f 45 cc 3e bc 0d 55 3f db ae f4 3e
       0.3490654 0.39896628 0.8322408 0.47789654
000010 80 53 50 3f ea b4 93 3e a0 a9 cc 3f 9a b8 ad 3e
       0.8137741 0.28848964 1.5989265 0.33929902
000020 3d d8 d4 3e 0c 09 a3 3e 66 58 dc 3e d3 4f 8c 3e
       0.41571227 0.3184284 0.43036193 0.2740465
000030 60 27 f1 3e 94 d7 c8 3e ce 23 f8 3e 6e c0 bd 3e
       0.47100353 0.39226973 0.48464817 0.37060875
000040 c7 4c 85 3e ef 37 bd 3e 13 7c 92 3f 35 82 76 3e
       0.2603514 0.36956736 1.1444114 0.24073108
000050 b9 19 e1 3e cb 18 94 3e ab 4e 32 3f 3a c7 91 3e
       0.43964937 0.28925166 0.6965129 0.2847231
000060 b6 f3 b0 3e 64 3b 97 3e d3 d8 b8 3e f9 32 ce 3e
       0.34560937 0.295375 0.36102924 0.40273264
000070 15 38 f0 3e f3 72 e9 3e 57 eb d5 3e a2 48 a4 3e
       0.46917787 0.45595512 0.41781113 0.32086664
